Run1_350k.onnx (onnx, 476371 bytes, 8 tensors)

network_body.observation_encoder.processors.0.normalizer.running_mean f4 [192]
000000 2e f0 2f 41 75 db ef 3f 14 36 3e 40 d3 c4 7f 3f
       10.996138 1.8738848 2.9720507 0.99909705
000010 ac a7 5d 3f ac 6e 88 3e b3 61 00 41 3b cb 8c 3f
       0.8658397 0.26646936 8.023852 1.0999521
000020 8b 42 54 40 2f 2b 7e 3f ac a7 5d 3f ed 23 bf 3e
       3.3165615 0.9928464 0.8658397 0.37332097
000030 bd a1 a7 40 24 dd 3d 3f 77 d4 82 40 0f a6 70 3f
       5.2384934 0.7416556 4.0884356 0.94003385
000040 ac a7 5d 3f f0 f5 da 3e 37 a0 46 40 da 4c 5e 3f
       0.8658397 0.4276576 3.1035287 0.86836016
000050 3f 4d 93 40 62 88 40 3f ac a7 5d 3f 88 7a da 3e
       4.6031795 0.75208104 0.8658397 0.4267161
000060 7e bb f8 3f 74 fe c4 3f 21 f0 a3 40 62 03 df 3e
       1.9432218 1.5390153 5.1230626 0.43557268
000070 ac a7 5d 3f d0 a6 f7 3e 29 69 cb 3f 8f 1c fe 3f
       0.8658397 0.48369455 1.5891467 1.9852465
000080 e5 f8 bb 40 2b 72 1e 3e ac a7 5d 3f 10 ca f4 3e
       5.8741326 0.15473239 0.8658397 0.4781041
000090 c7 be c8 3f a0 53 df 3f 4a b0 ce 40 b7 9e ed 3c
       1.5683221 1.7447395 6.4590197 0.029006345
0000a0 ac a7 5d 3f 85 53 f1 3e 5f ab 88 3f e5 2d 9d 3f
       0.8658397 0.47134033 1.0677298 1.2279631
0000b0 ba 92 90 40 3c 2d 04 3b ac a7 5d 3f 2a 9c 12 3f
       4.517911 0.0020168563 0.8658397 0.5726954
0000c0 d1 33 2e 40 b7 90 77 3f 0f 31 49 40 7f ea ab 3e
       2.7219126 0.9670519 3.1436193 0.33577344
0000d0 2a 8e 36 3f c7 85 2b 3f f7 31 b7 3f 58 ad e7 3e
       0.71310675 0.67001003 1.4312123 0.45249438
0000e0 f5 49 c4 3f 43 8b 40 3e 1d 7c aa 3e 53 92 ab 3e
       1.533507 0.18803124 0.33297816 0.33510074
0000f0 00 00 00 00 00 00 00 00 00 00 00 00 00 00 00 00
       0.0 0.0 0.0 0.0
000100 00 00 00 00 00 00 00 00 72 42 18 40 4e 3c a0 3f
       0.0 0.0 2.3790555 1.2518404
000110 27 12 81 40 ac 2e ac 3e 85 09 69 3f 6c fc 5f 3f
       4.033466 0.33629358 0.9103015 0.8749454
000120 57 2d 2b 40 d9 dc 96 3f ed 07 83 40 21 cd c8 3e
       2.6746423 1.1786147 4.0947175 0.39219
000130 ac df 59 3f 6c fc 5f 3f 4f 40 29 40 a6 2b 96 3f
       0.8510692 0.8749454 2.64455 1.173207
000140 2f 62 81 40 20 5c c7 3e e3 14 5d 3f 6c fc 5f 3f
       4.0432353 0.38937473 0.86359996 0.8749454
000150 b2 e3 07 40 05 6e 8a 3f 01 5b 60 40 c7 95 93 3e
       2.1232724 1.0814825 3.5055544 0.2882521
000160 da fe 3a 3f b0 fc 3f 3f c4 4d 1a 40 a4 e3 7f 3f
       0.7304512 0.74994946 2.4109964 0.9995673
000170 46 17 60 40 de 8d b1 3e af 8f 42 3f b0 fc 3f 3f
       3.5014205 0.3467855 0.76000494 0.74994946
000180 54 a4 15 40 8c 64 80 3f 11 55 5e 40 1b c7 ad 3e
       2.3381548 1.0030684 3.473942 0.33940968
000190 3b 6e 42 3f b0 fc 3f 3f e6 c4 f2 3f 58 0f 65 3f
       0.7594945 0.74994946 1.8966339 0.8947654
0001a0 01 f7 3f 40 20 0d 83 3e 06 3b 1d 3f fa fc 1f 3f
       2.999451 0.2559595 0.6141819 0.62495387
0001b0 51 c3 08 40 44 3d 4e 3f b4 fd 37 40 3c 36 a3 3e
       2.1369212 0.80562234 2.8748598 0.31877315
0001c0 32 14 22 3f fa fc 1f 3f f8 b1 08 40 a5 c7 4e 3f
       0.63312066 0.62495387 2.1358624 0.80773383
0001d0 69 7d 38 40 d7 aa a1 3e fe b0 20 3f fa fc 1f 3f
       2.8826544 0.31575653 0.6277007 0.62495387
0001e0 25 12 d8 3f 23 ef 30 3f 10 c0 19 40 00 c5 6e 3e
       1.6880537 0.69114894 2.4023476 0.23317337
0001f0 13 a3 fc 3e 2e fc ff 3e af 93 f7 3f ef 69 1c 3f
       0.49343166 0.49997085 1.9341944 0.6109914
000200 2b f2 0d 40 07 9c 95 3e 53 34 01 3f 2e fc ff 3e
       2.2179058 0.29220602 0.50470465 0.49997085
000210 54 5f f4 3f 86 59 1b 3f 5e 8d 0e 40 b3 f2 94 3e
       1.9091592 0.60683477 2.2273784 0.29091415
000220 18 77 00 3f 2e fc ff 3e 04 50 b7 3f 4c 71 03 3f
       0.5018172 0.49997085 1.4321294 0.5134475
000230 bf 61 e9 3f 09 43 42 3e d2 b0 bc 3e b0 fc bf 3e
       1.8232955 0.18970884 0.36853653 0.37497473
000240 c1 19 d4 3f 89 12 e9 3e cb e9 d5 3f 52 81 72 3e
       1.657036 0.45521954 1.6711973 0.23682144
000250 85 46 c2 3e b0 fc bf 3e 0e 76 d3 3f 48 89 e7 3e
       0.37944427 0.37497473 1.6520402 0.45221925
000260 35 17 d6 3f 38 c4 72 3e 70 09 c1 3e b0 fc bf 3e
       1.6725832 0.23707664 0.37702513 0.37497473
000270 86 b1 8f 3f 8d 1a b4 3e aa 70 99 3f 64 75 0d 3e
       1.1226051 0.35176507 1.1987507 0.13814312
000280 3a 9b 7c 3e 2e fc 7f 3e ca 9e a3 3f 7d 49 a4 3e
       0.24668589 0.24998543 1.2782834 0.32087317
000290 62 76 8d 3f 0d 06 2a 3e 73 22 81 3e 2e fc 7f 3e
       1.1051753 0.1660387 0.25221595 0.24998543
0002a0 0e 60 a2 3f eb 7e a4 3e 0e 85 8d 3f 69 f6 28 3e
       1.2685564 0.3212808 1.105623 0.16500248
0002b0 33 8e 80 3e 2e fc 7f 3e 34 94 22 3f 1f 27 34 3e
       0.2510849 0.24998543 0.6350739 0.17593049
0002c0 11 12 17 3f 7c eb 99 3d 4b e6 00 3e 2e fc ff 3d
       0.5901194 0.07515618 0.1258785 0.12499271
0002d0 61 6f 2a 3f 47 b6 32 3e 41 60 11 3f 37 37 a2 3d
       0.665762 0.17452346 0.56787497 0.07920688
0002e0 a6 ba fe 3d 2e fc ff 3d 17 7d 2b 3f ae 2b 34 3e
       0.12437944 0.12499271 0.66987747 0.17594787
0002f0 ad 4f 0f 3f e5 b9 a2 3d e0 74 ff 3d 2e fc ff 3d
       0.5598095 0.07945613 0.12473464 0.12499271

network_body._body_endoder.seq_layers.0.weight f4 [256, 192]
000000 98 94 b1 3d 7a d8 ed 3c 31 01 5f 3b 84 de 36 bd
       0.0867092 0.029033888 0.003402781 -0.0446458
000010 82 75 19 be 36 2e eb bb 6c 12 a1 bc 30 7b 81 3d
       -0.14986232 -0.0071771396 -0.019662105 0.06322324
000020 29 21 0f be 8c 88 a2 3d 0f ee 23 3e cd 12 10 bd
       -0.13977493 0.079362005 0.16008781 -0.03517418
000030 98 8f 04 bc 23 7f 91 bd 3b 9a b1 3d f0 f9 de 3b
       -0.008090876 -0.071043275 0.08671995 0.006804697
000040 da a9 6a 3d be 36 dd 3d 53 61 92 bd a2 3b 35 3d
       0.05729089 0.10801457 -0.07147469 0.044246323
000050 30 a4 c3 bc 5f 92 10 be a0 29 00 3d 61 21 c7 bd
       -0.023882002 -0.14118336 0.031289697 -0.097231634
000060 1d 1d 42 bc 9f ee 52 bd 44 60 d4 3c 44 cf 60 bb
       -0.011847761 -0.051497098 0.02592481 -0.0034303227
000070 44 2c 14 3e f7 75 cf bc a7 3f 2d bd 7a 51 68 3d
       0.14470011 -0.025324805 -0.04229703 0.056718327
000080 f0 28 e3 bd d8 a7 9f bd ac db 02 3d f7 f4 9e bd
       -0.110917926 -0.077956855 0.031947777 -0.07761567
000090 58 d8 70 3d b4 3b 29 bc 33 a9 15 3c 02 08 0b bd
       0.05880007 -0.010329176 0.0091345785 -0.033943184
0000a0 2b 38 90 bd c9 b9 d9 bc 95 a7 7c bc 6c 9f 40 3d
       -0.07041963 -0.026577847 -0.015420814 0.047027037
0000b0 18 dc 5e bd b3 13 e2 bc 76 b0 4b 3d 88 65 91 3d
       -0.054409117 -0.027597284 0.049728833 0.07099444
0000c0 53 55 99 3d 9f e4 09 be f4 a5 5b 3d b4 ca aa 3d
       0.074869774 -0.13466118 0.053625062 0.08339444
0000d0 3e d2 37 bc b4 c0 2b bc 61 0c 16 3c c6 0c a7 bd
       -0.011219559 -0.010482956 0.009158225 -0.08156733
0000e0 da 83 2a bd d0 25 27 3e 07 15 4b bd b8 46 99 3b
       -0.04162965 0.16323018 -0.0495806 0.00467762
0000f0 dd 0c 24 3c 88 c7 83 bc 3d 07 a7 bd b0 39 ee bc
       0.0100128325 -0.016086355 -0.081556775 -0.029080242
000100 24 73 5d bd a9 e2 96 bd a7 14 f3 bd 75 69 3f bd
       -0.054064885 -0.07367451 -0.118691735 -0.04673143
000110 f3 7c c6 bc 4e 8f c6 bd 4c 49 02 bd 7a 75 a1 3c
       -0.024229502 -0.09695302 -0.031808183 0.019709338
000120 85 c5 15 3d aa 5a 33 3d f1 5a ca bd 7b bb d5 bc
       0.036565322 0.043787636 -0.09880627 -0.026090374
000130 cb 1c 4d 3d 2d a0 e9 bd c7 de 6a 3d da 49 16 be
       0.050076287 -0.11407504 0.057341363 -0.1467661
000140 09 75 cc bc 7d 47 65 3c be 7b 51 bc 88 9d 0b 3d
       -0.02495815 0.013994095 -0.01278585 0.03408578
000150 39 32 f7 ba 87 28 6a 3d a8 54 42 bd e4 54 00 be
       -0.0018859572 0.057167556 -0.047444016 -0.12532383
000160 81 8c 61 bc f6 ff 72 bd 17 1f cb bd 43 04 39 bd
       -0.013766409 -0.059326135 -0.09918039 -0.04517008
000170 85 7f f3 3d ac a9 aa 3a b2 72 a8 bd 89 9e 63 3b
       0.11889557 0.0013020537 -0.082250014 0.0034731945
000180 05 da 80 3d 72 72 7d bd 0a 29 21 3e 13 85 3c bc
       0.06291584 -0.06187672 0.15738311 -0.011506337
000190 9e fa fb 3c 13 d1 23 bd 53 24 24 3d 49 8f 02 3e
       0.030759152 -0.03999431 0.040073704 0.12749971
0001a0 6c c1 80 3d f5 b8 a5 bd 8e b7 e7 3c 96 2b 9c bd
       0.06286892 -0.080919184 0.028285768 -0.07625501
0001b0 57 6b 4d 3e 83 18 43 3d 2b 15 22 3d 3d 98 48 3d
       0.20060478 0.047630798 0.03957097 0.04897331
0001c0 b7 b4 46 3e e2 f4 91 3d 49 d0 3c 3d 8e 16 0f bb
       0.19404875 0.07126786 0.046097074 -0.0021833512
0001d0 aa 3a 1a 3d e7 ca 2b be ff a8 59 bc e8 80 ca 3d
       0.037653603 -0.1677662 -0.013284921 0.09887868
0001e0 ab c7 32 bc 49 4c 44 3d 0f 8e 89 3c 27 64 60 3d
       -0.010911862 0.047924314 0.016791372 0.054783013
0001f0 74 60 01 bd cc 3c ca 3d 95 9c 62 bc 95 42 a4 3d
       -0.031586125 0.09874877 -0.013831277 0.08020512
000200 39 c6 2a 3d 03 e7 02 bb 4f db fd 3c 9b 46 88 3d
       0.041692946 -0.001997412 0.030988364 0.06654092
000210 69 2d 8a 3d f4 67 e8 bb 11 c8 25 3d 63 65 06 bc
       0.067469425 -0.0070924703 0.040474 -0.008202883
000220 61 51 41 bd 24 2f 4c 3d 08 c1 f3 bd bf d1 85 bd
       -0.04719675 0.049849644 -0.11902052 -0.065341465
000230 ce 23 1f be c5 2c ff bd 66 a2 4a 3d b6 9a 82 bd
       -0.15541002 -0.12459711 0.04947128 -0.06377165
000240 1b 3d d7 bd a4 24 e9 3d 92 b9 73 bd 5e 73 2c bd
       -0.10509702 0.11383942 -0.059503146 -0.04210221
000250 50 98 98 3d 1a 6e 56 bd 6d b3 14 be f0 a0 63 bd
       0.07450926 -0.052351095 -0.1452157 -0.055573404
000260 8f 48 83 bd 91 d0 e5 3c 95 09 85 bd b8 2e 34 bd
       -0.06410324 0.028053554 -0.06495968 -0.043989867
000270 0c 3f 32 bd f2 86 76 bd d2 21 86 3c 48 61 bf 3c
       -0.043517157 -0.060187288 0.016373549 0.023361817
000280 ea d9 62 3d 01 aa 96 3c 3c 26 1d 3e 29 df 21 3c
       0.0553836 0.018391611 0.15346617 0.009879866
000290 14 33 88 3d 70 21 17 3d b6 4a 5a bd f5 be d0 bb
       0.066503674 0.036897123 -0.053293906 -0.00637042
0002a0 60 1a 70 bd 89 fd 1f 3c f1 4d e6 bd b5 38 b4 bd
       -0.058618903 0.009765037 -0.11245335 -0.087998785
0002b0 b9 4c 25 be 31 c5 b1 bd b7 f3 4a 3c fa 47 d7 bd
       -0.16142549 -0.086801894 0.012387208 -0.10511775
0002c0 ea 67 76 3d c6 41 39 be 0e 8e 0c bd 31 08 08 be
       0.060157694 -0.18091497 -0.03431516 -0.13284375
0002d0 db 81 94 bc 8e 7a 0e 3b 87 60 66 bd d1 44 30 be
       -0.018128326 0.0021740529 -0.0562444 -0.17213751
0002e0 39 ce 89 bd 03 f7 09 bd ac 5d 93 bd 41 98 52 bd
       -0.06728787 -0.033682834 -0.07195601 -0.051414732
0002f0 f5 13 de 3c db 71 51 be d2 07 6a bd cf 52 d5 bc
       0.027109126 -0.20453589 -0.057136364 -0.026040463
000300 f8 19 46 3d 84 2f 4a 3d c4 a6 89 bb 54 b5 4a 3d
       0.04836461 0.04936172 -0.004200788 0.049489334
000310 c3 ef c7 3c 02 2e 07 be 67 d8 1f bd 68 a3 9f 3d
       0.02440632 -0.13201144 -0.039024737 0.07794839
000320 4a bd 8e 3d f2 c7 51 bc b6 fe ad bd 0d f9 85 bd
       0.06969698 -0.012804018 -0.08495848 -0.06541643
000330 c2 44 fa bd 2d 01 f7 bd 74 34 43 3d 46 b1 10 bd
       -0.12220146 -0.12060771 0.047657445 -0.03532531
000340 b3 5b 49 bd b8 62 28 bc 5e ce 18 3e 31 4c 92 bd
       -0.049159717 -0.010277443 0.14922473 -0.071434386
000350 86 2c e9 bc 38 43 c9 3d 0e 3e fa 3c f3 aa 4e 3d
       -0.028463613 0.09827274 0.030547168 0.050456
000360 91 29 e6 bc 16 15 63 3d c4 05 15 bb 0d b6 83 3d
       -0.028095992 0.05544003 -0.0022739032 0.06431208
000370 8b 71 7e 3d d1 b3 8c 3d 10 b7 cb bd 11 ce 8c 3d
       0.06212 0.06870235 -0.09947026 0.068752415
000380 b3 af 19 be d8 f2 47 bd 11 7e 70 ba 29 64 8f bd
       -0.1500843 -0.04881558 -0.0009174059 -0.07001526
000390 c8 09 d4 3d ee 0a db bd 0c 02 d2 bd 4c f3 72 3d
       0.10353428 -0.10695444 -0.10254297 0.059314057
0003a0 3e c2 d6 3c d9 9f e3 3c e0 93 7e 3c 92 f1 b7 bc
       0.026215669 0.027786182 0.015538186 -0.022454057
0003b0 d7 d3 03 3c b0 1a 21 bd d2 76 c0 3b 54 fe 47 bd
       0.008046112 -0.03933209 0.0058735395 -0.04882653
0003c0 82 0a 91 bd e7 0b e3 bd 0b ca 5a 3c 11 a0 d4 3d
       -0.07082082 -0.110862546 0.013353835 0.10382093
0003d0 eb 46 c0 bd 02 35 6c bd 3f 8f 2a bc 90 9f af bc
       -0.093885265 -0.05766774 -0.010410129 -0.02143839
0003e0 86 35 c0 bd f1 ab b0 bd f0 4d 0e 3c 5c fc 82 bd
       -0.09385209 -0.08626545 0.008685574 -0.0639579
0003f0 e5 65 7a bd a0 95 00 3d 0e 92 bd bd 35 56 7b 3d
       -0.06113233 0.031392694 -0.09256373 0.06136151

network_body._body_endoder.seq_layers.0.bias f4 [256]
000000 fc 5f f7 3c 37 81 fe 3c 9c ce 03 3d 21 67 a1 3c
       0.030197136 0.031067474 0.03217946 0.019702496
000010 e5 ea 91 3b 80 bd f7 3c 07 47 34 3c 21 d3 08 3c
       0.0044530504 0.030241728 0.011003262 0.008351118
000020 94 d7 22 3d 6c 35 ab 3c 8c 94 86 3c 35 35 c1 3c
       0.039756373 0.020899497 0.016428255 0.023584941
000030 fb 00 1c bb 19 ce be 3b 6c 28 8f 3c b1 91 a1 3c
       -0.0023804295 0.0058229086 0.01747533 0.019722791
000040 50 e7 18 3d f4 54 d8 3b c5 8f 5d 3b 9f 11 13 3d
       0.03732997 0.006601924 0.0033807617 0.035905477
000050 c3 08 de 3c 5e f3 e0 3c 9a bb 0f 3d f9 2e 3b 3d
       0.027103787 0.027459797 0.03509102 0.045699093
000060 63 c1 a6 3c 69 2f 2b 3c f2 94 1d bc dc bb 19 3c
       0.020355886 0.010448315 -0.009618031 0.009383168
000070 95 00 a9 3c 38 af b7 3c b1 e9 02 3d 7d 22 bc 3c
       0.02063016 0.022422418 0.031961147 0.022965664
000080 57 cc 0a 3d 15 57 c1 3c 42 bf de 3c e9 e2 16 3c
       0.03388628 0.023601094 0.027190808 0.009209373
000090 b4 2d 4c 3b 93 e1 a2 3c 4a 6e 17 3d f8 37 09 3d
       0.003115517 0.019882953 0.036970414 0.03350064
0000a0 6e d4 90 bb c2 6b 8b 3c ff 9c d0 3c a9 23 0a bb
       -0.004419855 0.017019156 0.025465487 -0.0021078384
0000b0 ad 6e d9 39 db 5d e0 3c b3 3e cc 3c 87 95 0b 3c
       0.00041471925 0.027388504 0.024932241 0.008519537
0000c0 1a 92 e0 3c aa ff 04 3d 79 25 e2 bb 7a 1a a3 38
       0.027413417 0.032470383 -0.0069014397 7.777377e-05
0000d0 78 97 3c 3d d7 ae 87 bc a7 86 f9 3c 94 4a e8 3c
       0.04604289 -0.016562862 0.030459715 0.028355874
0000e0 93 d7 a2 3c f4 59 07 3d ab 42 18 3d 28 17 08 3d
       0.019878184 0.03304477 0.037172955 0.03322521
0000f0 9a da 88 3c 50 3b 7e 3c 22 29 62 bc 6b b3 f4 3c
       0.0167058 0.015517071 -0.013803752 0.02987071
000100 5c be 5b 3c 52 14 a7 3c 60 36 32 3c 11 bc e0 3c
       0.013412084 0.020395432 0.010877222 0.027433427
000110 4e a3 c9 3c fa 20 29 3c 08 37 8d 3c da 26 c5 3c
       0.024614003 0.010322804 0.017238155 0.024066377
000120 30 87 f5 3b f1 55 fc 3c 61 b4 27 3d 1e 6f cb bb
       0.0074929222 0.030802699 0.040943507 -0.0062083146
000130 0a a2 48 3c 25 70 ac 3b 0a 62 af 3c b8 30 5c bc
       0.012245664 0.005262392 0.021409053 -0.01343935
000140 fc c7 b9 3c c5 8b fb bc ae 13 fc 3c 9b 15 b2 3c
       0.022678368 -0.030706296 0.030771103 0.021738818
000150 dc 87 8b 3c ef 32 d8 3c 73 11 f7 3c 6d b8 08 3d
       0.017032556 0.026391475 0.030159688 0.033379007
000160 73 32 e8 3c ee d2 18 bc 3a b5 0f 3d 5b fd 1f 3c
       0.028344369 -0.009327633 0.03508494 0.0097649945
000170 fc 82 81 3c 03 a2 ae 3c 62 20 0b 3c 04 5a c7 3c
       0.015809529 0.021317488 0.008491607 0.024334915
000180 58 e4 88 3a 69 9b a6 3c 83 4c da 3c 88 66 ed 3c
       0.0010444028 0.020337777 0.026647812 0.028979555
000190 6b cc a5 3c 08 ee 98 bb 4e d6 e7 3b 5b bb db 3c
       0.020239076 -0.0046670474 0.0070751077 0.026822736
0001a0 29 d1 3d 3c bc d1 91 3c f2 d8 b9 3c 75 ef f3 3c
       0.011585512 0.017800204 0.022686455 0.029777268
0001b0 30 3d ca 3c 61 a6 f6 3c bf 8c 14 3d 9f 6f 14 3d
       0.02468738 0.030108633 0.03626704 0.036239263
0001c0 1d 72 8b 3c 60 18 33 bc 42 89 32 3b f3 62 fc 3c
       0.017022187 -0.010931104 0.0027242457 0.030808901
0001d0 0d 64 f8 3c 7e d4 c0 3c 42 5b 22 3d 86 1c a9 3c
       0.030321145 0.023538824 0.03963781 0.020643484
0001e0 92 3b 79 3c 87 68 b5 3c 74 68 e5 3c d1 49 86 3b
       0.015211957 0.02214457 0.028003909 0.004098155
0001f0 fc 32 58 3b 82 87 38 3c dd 2c f5 bb 3c fd 91 3b
       0.0032989373 0.011262776 -0.0074821548 0.0044552367
000200 c1 8d ba 3c 34 0a 8f 3c 3e 27 b3 3c 29 de 1c 3d
       0.022772672 0.01746092 0.021869298 0.038297806
000210 ab 15 b2 3c 71 96 0e 3d b5 29 04 3d fa 54 bb 3c
       0.021738848 0.03481144 0.032266337 0.022867668
000220 84 4b b6 3c 5d 17 31 3c 5d 4d 80 3c b6 f0 60 3c
       0.022252806 0.010808793 0.01566189 0.013729265
000230 b0 17 1a 3d 89 95 bc 3c 1d e2 d4 3c 53 5d 8f 3c
       0.037620246 0.023020523 0.025986725 0.017500555
000240 ed cd dd 3c d8 02 f2 3c bd 80 55 3c c1 a5 03 3d
       0.027075732 0.029542372 0.013031182 0.032140497
000250 03 eb 10 3d 64 70 82 bb 1a 44 08 3d f6 d0 98 3c
       0.035380375 -0.003980683 0.03326807 0.018654328
000260 14 ed b1 3c d9 7c f5 3c fa cd 87 3c 52 2e d4 3c
       0.021719493 0.029966759 0.01657771 0.025900993
000270 e5 d5 02 3d 07 d5 b2 3c c2 65 cf 3c ba eb 00 3d
       0.031942267 0.021830095 0.025317077 0.031474806
000280 ab 48 c0 3c 49 0e cf 3c 34 a8 92 3c 22 8e 3b 3c
       0.02347215 0.025275366 0.017902471 0.011447461
000290 3e 2a 51 39 33 45 8a 3c 8f e2 f8 3c 87 32 04 3d
       0.0001994753 0.0168787 0.030381469 0.03227475
0002a0 4e 04 6b 3c e5 27 b0 3c 3a 25 14 3d 52 be 52 3c
       0.014344288 0.021503398 0.036168315 0.012862759
0002b0 6e 31 0f 3c 2e 36 9c 3c 8b 8f 4e 3c fc 5b 06 3d
       0.008739812 0.019068804 0.0126074655 0.032802567
0002c0 92 06 16 bc e7 55 f6 3c 6e 76 ed 3b 57 99 c0 3c
       -0.00915684 0.030070258 0.007246784 0.023510618
0002d0 d3 b0 f6 3c d9 3f 0c 3d e4 82 fe 3c 1f 53 1d 3d
       0.030113613 0.034240577 0.031068273 0.03840935
0002e0 0d 7e 1e 3d fc a2 24 3d 24 8d f0 3c 11 5c 71 3c
       0.03869443 0.040194497 0.029364176 0.014731423
0002f0 a1 bb ee 3c 81 92 75 3c 97 b2 2b bc dd 14 d5 3c
       0.029142203 0.014988543 -0.010479591 0.026010925
000300 e8 67 de 3c 9d c4 bb 3c 4d d1 c9 3c bc 59 1e 3a
       0.027149156 0.022920901 0.024635935 0.0006040593
000310 f1 8e 9b 3c bf 9b cf 3c 61 1d d1 3c 50 d7 a0 3b
       0.018989058 0.02534282 0.025526704 0.0049084798
000320 77 2a f9 3c b2 8e 26 3d 58 d6 dc 3c 55 ee ac 3c
       0.030415757 0.04066343 0.026957676 0.02110974
000330 6e 41 04 3d 21 ed 1e 3d b1 69 14 3d 30 e6 0d 3d
       0.03228896 0.038800362 0.036233608 0.034643352
000340 a3 fb 0b 3d dd 73 e7 3b de c8 b6 3c ab e2 00 3d
       0.034175526 0.0070633725 0.022312578 0.031466167
000350 d3 69 74 3c 2a 77 d4 3b ea 59 33 3c ea 2b 01 3d
       0.014917809 0.006483932 0.01094673 0.03153602
000360 f2 14 39 3c c6 ea 48 3c 64 63 45 3c 5a 15 0d bc
       0.011296498 0.012263006 0.012047622 -0.008611048
000370 75 43 01 3d b7 03 0b 3d 31 91 50 3c 7f ff 00 3c
       0.031558473 0.03393909 0.012729929 0.007873415
000380 30 85 c2 3c c1 95 95 3c 45 dd 0a 3d 6d 87 7c 3c
       0.02374515 0.018259885 0.033902425 0.015413147
000390 97 76 94 3c 96 6b 91 3c 93 d6 49 3c 27 28 29 3d
       0.018122954 0.017751496 0.012319225 0.041298058
0003a0 e9 11 de 3c a0 e9 d0 3c 98 ef 0d 3d ff bf 09 3c
       0.02710815 0.025502026 0.034652323 0.008407592
0003b0 a0 42 28 3d a2 ff 9c bb c3 dd b1 3c f4 5c a4 3c
       0.041079164 -0.004791216 0.02171219 0.020063855
0003c0 c9 0e 35 3c c2 55 e2 3c c6 8f 16 3d 21 ab db 3c
       0.011050888 0.027628783 0.036758207 0.026814999
0003d0 b2 c3 a8 3c 39 09 1f bc 80 af 0b 3d 8c 2d 5c 3d
       0.020601127 -0.009706789 0.034102917 0.053754374
0003e0 d3 4d 80 3c f2 4f a1 3c e6 09 5e 3c d9 2b cb 3c
       0.01566211 0.019691441 0.013552165 0.024801182
0003f0 e2 dc a5 3c 85 a6 02 3d 5f 65 c6 3c 7b e2 41 3c
       0.020246927 0.031897087 0.02421826 0.011833782

network_body._body_endoder.seq_layers.2.weight f4 [256, 256]
000000 b1 5e 53 b9 cb f4 89 3d 57 31 03 3d 60 e6 02 bd
       -0.00020157803 0.06736144 0.032029476 -0.031957984
000010 3d 4e a1 3d bc f5 0c 3e 20 0b 3e 3d c8 9b 20 3e
       0.07876251 0.13765615 0.04639733 0.15684426
000020 29 07 1c bd 12 3f 10 bd c3 be ff bc db d6 96 bd
       -0.038092766 -0.0352164 -0.031218892 -0.07365199
000030 2b 10 cd bb 50 47 67 bb 7f d0 0a 3c fd 47 27 bc
       -0.006258031 -0.0035290308 0.008472561 -0.010210034
000040 e1 91 ff 3b e8 5c 2b 3d 13 2f c6 bd c1 e1 35 3d
       0.0077993725 0.04183665 -0.096769474 0.04440475
000050 82 48 00 bd cf 9a 35 3c 74 97 e2 bb 16 8d 5e 3d
       -0.03131915 0.0110842725 -0.0069150273 0.05433377
000060 c7 e5 b9 bd 7c d1 f5 bc 2c 7a 50 bd 6e ec ab 3d
       -0.0907703 -0.030007116 -0.050897762 0.08394705
000070 99 f0 83 3d 8d 77 26 bd 93 6a da bc 92 e0 98 3b
       0.06442375 -0.040641356 -0.026662147 0.0046654427
000080 83 64 ee 3b 92 84 23 3c c6 3f e6 3c 91 e9 67 3d
       0.0072751655 0.009980338 0.028106581 0.05661923
000090 fa 55 82 3d 69 4b a2 3c 68 77 c4 3d 3f 5f 43 3d
       0.06364055 0.019811349 0.095930874 0.047698256
0000a0 70 6f b5 bd df a6 d1 3c ba aa c4 bc 4e 6b 18 bd
       -0.08859146 0.025592266 -0.02400719 -0.03721171
0000b0 35 49 3a 3d d0 05 56 3d a0 63 63 3d 16 7d 7c bc
       0.045479972 0.052251637 0.05551493 -0.015410682
0000c0 68 8b 34 bd 95 c3 9b bd 03 57 27 3e b6 b1 c8 ba
       -0.04407826 -0.07605664 0.16341786 -0.0015311751
0000d0 bf f0 f5 bc 97 6d b0 3c 22 0a 6f bc 3f 08 18 be
       -0.030022023 0.021536632 -0.014589818 -0.14846896
0000e0 6e 51 88 bd 79 ee d6 ba 30 d3 90 3d ec 9e 59 3c
       -0.066561565 -0.0016397975 0.07071531 0.013282519
0000f0 54 4e 27 3d 60 8d 57 bb c9 56 58 bd d5 36 a7 3c
       0.040846184 -0.0032890663 -0.05281714 0.020411888
000100 c3 08 4d 3c 3b f7 e3 bd 54 59 80 bd d4 48 7d bd
       0.012514296 -0.1113114 -0.06267038 -0.061837032
000110 c7 e4 47 3c 8e a3 57 bd ac 9d a4 bc 99 bb 9e bd
       0.012200541 -0.052646212 -0.020094715 -0.07750625
000120 75 bb 6b bd 8f 68 77 3d 54 07 27 3e f7 56 32 3d
       -0.05755182 0.06040245 0.16311389 0.043539967
000130 70 47 70 bd df be c8 3d 07 0f 97 3d b0 fd 8f bd
       -0.058661878 0.09802031 0.07375913 -0.07030809
000140 46 e3 84 3d 84 c0 96 3d 0a 3a 8d 3c b2 d7 c4 bb
       0.064886615 0.07360938 0.01723959 -0.006007158
000150 79 79 07 3e eb 7b 13 be 60 92 0f bd 63 07 86 bd
       0.13229932 -0.1440274 -0.035051703 -0.06544378
000160 65 68 ea bc 45 87 88 3d 28 9c 6b 3c 5a 50 9e 3d
       -0.028614232 0.066664256 0.014380492 0.077301696
000170 35 15 84 3a 92 35 fc bd 4b 58 50 3d 8d 37 f6 bb
       0.0010077121 -0.12314905 0.050865453 -0.0075139464
000180 8a 06 a4 3d aa 87 5f 3d 4d de 96 3c ce 24 3a bd
       0.0800906 0.05457274 0.018416548 -0.045445256
000190 fe 62 e5 bd c7 c6 4f bd 75 8b 30 3d 3c c7 c5 3d
       -0.11200522 -0.05072668 0.043101747 0.096571416
0001a0 3b 7b 19 3d 2d e8 aa 3d 19 49 87 3d be 86 b4 3b
       0.037471037 0.08345065 0.06605739 0.0055092266
0001b0 18 28 04 3d 8f d1 90 3d 3d b5 83 bd 26 f3 94 3d
       0.0322648 0.0707122 -0.06431053 0.072729394
0001c0 53 29 e9 bd 77 05 80 bd c0 0f 95 3c 46 87 9b 3c
       -0.11384835 -0.06251042 0.018195987 0.018985402
0001d0 e5 d4 48 3d 57 e3 ed 3c 97 1d 07 3d 91 6f 95 3b
       0.049031157 0.029039068 0.032987203 0.004560419
0001e0 de ff 5f 3b 71 3d c4 3c 7d 5e c9 bc 3e dd 31 bd
       0.0034179608 0.023955079 -0.024581188 -0.043423884
0001f0 6a a6 ad bd d6 af 5c 3d 99 27 03 bc f7 0b 61 bd
       -0.084790066 0.053878628 -0.008005046 -0.05494305
000200 b4 56 15 3e 3b 4a 93 bc d8 33 91 3d d1 9b 14 3e
       0.14583856 -0.017979732 0.070899665 0.14512564
000210 e9 d4 f6 bc ad 57 bf bd c7 63 37 bd 73 c8 fb bd
       -0.03013082 -0.09342895 -0.04477289 -0.12294092
000220 b3 ac 12 bd be 8e ad 3c 73 f8 6b bd 0f 9e 40 bc
       -0.03580923 0.021186229 -0.057609987 -0.011756434
000230 80 e1 0a 3c 53 2a 10 3e 8d 45 bd 39 97 25 e4 bc
       0.008476615 0.14078645 0.00036100709 -0.027849955
000240 ec cb ca bc 8a 45 6e bd 2a 3c 8d bb b9 e5 a8 bc
       -0.02475544 -0.058171786 -0.0043101506 -0.020617353
000250 8d 6c 98 bd ef eb 3d bd ef ca 80 bd 94 9d 99 3d
       -0.074425794 -0.046367582 -0.062887065 0.07500759
000260 c7 73 92 bd 29 c7 96 3d bd 4c 97 bc 2f 43 84 bd
       -0.07150989 0.073622055 -0.018469209 -0.06458127
000270 48 ba 29 bc 53 6e 14 3d c7 02 86 bd 5b e4 07 bd
       -0.010359354 0.036238026 -0.065434985 -0.03317676
000280 9d 7d 53 3c a2 eb 85 b9 07 15 46 3d 2f 31 ab bd
       0.0129083665 -0.00025543297 0.048359897 -0.083589904
000290 04 2b 83 bd c2 02 3d 3d 94 4b 81 bd 6d f5 97 bd
       -0.06404689 0.04614521 -0.063132435 -0.07419858
0002a0 e0 88 7b bd 5c 2b de 3b 26 49 f6 3c 04 7d 22 bd
       -0.06140983 0.006780071 0.030064177 -0.039670005
0002b0 fd e1 45 3c 6b 76 cf bd e9 d1 a7 3d 17 92 e8 3c
       0.012077806 -0.10130008 0.08194334 0.028389974
0002c0 16 11 c0 3c c3 85 06 3d 68 c2 68 bc 8f 7f c3 bb
       0.023445647 0.03284241 -0.014206506 -0.005966134
0002d0 4b 79 54 bd 1a 83 8c bd cb 4f a4 bd 64 8c 52 bd
       -0.051873486 -0.06860943 -0.08023032 -0.05140342
0002e0 8d 3b 1e 3d e2 26 99 bd c9 48 9b 3c 55 1a 58 be
       0.03863101 -0.074781194 0.018955605 -0.21103795
0002f0 94 7a b9 3d cf 5a 69 bc 9a 7c 17 3b ec 06 09 bd
       0.09056583 -0.014242842 0.002311504 -0.033453867
000300 80 39 91 bc c4 10 65 3d f4 b7 36 3c d9 be 60 bd
       -0.017727613 0.055924192 0.011152256 -0.054869507
000310 dc 14 91 bb fc f1 24 3d 8d 73 19 3e ac b0 ec bd
       -0.0044275355 0.040269837 0.14985485 -0.11557135
000320 f8 02 fb bc fe 4f 00 3e be fc dc 3d 97 f6 42 3d
       -0.030641064 0.12530515 0.10790394 0.047598448
000330 45 11 b4 bd 44 12 a2 bd 0f bd dc 3d ab ff 7b 3d
       -0.087923564 -0.0791364 0.107782476 0.06152312
000340 a1 bb c0 3d 0f 9d 9d bd df fb 08 3c 35 73 86 bb
       0.094107874 -0.07695972 0.008360832 -0.004103089
000350 3a 4f ae bd f6 1b 88 3c 45 b1 91 3c ad 17 75 3a
       -0.08511205 0.016614895 0.017784724 0.0009349536
000360 3e 83 cf bc 7c 14 5d 3b dd 3e 79 3c bb c3 e5 bd
       -0.025331136 0.0033734133 0.015212742 -0.11218973
000370 5c f1 c6 bd 12 f0 8f bc 8e 73 01 3e a7 84 05 3c
       -0.097140044 -0.01757053 0.12641737 0.008149303
000380 ca 54 8c 3c 2d 8c 6e 3d 52 38 df 3d db 19 40 3d
       0.017130274 0.05823915 0.10899414 0.046899658
000390 fc 35 32 3d 7e cf 14 bd 66 8f b9 bc 00 0e e5 3c
       0.043508515 -0.036330692 -0.022651386 0.027960777
0003a0 c7 45 92 3a 93 69 51 bc 3b 2c b7 3d 99 b0 ff bb
       0.0011159711 -0.0127815185 0.08943983 -0.0078030345
0003b0 c5 66 84 bc f2 25 07 3e 3d 83 b8 3c 2d 7c f2 bc
       -0.016162286 0.13198069 0.022523517 -0.029600227
0003c0 90 64 7f bd 18 07 14 bd 66 b7 99 3d 93 40 0d 3d
       -0.062351763 -0.036139578 0.075056836 0.03448541
0003d0 76 90 20 be c8 c4 89 bc c8 0a 35 3b 47 d6 ad bd
       -0.15680107 -0.016817465 0.0027624834 -0.08488136
0003e0 be e6 cc ba be 4e 82 bd f9 40 2a 3c 14 e5 d7 3c
       -0.0015632731 -0.06362675 0.010391467 0.02635435
0003f0 c3 16 29 3e e7 f6 d2 bc fb bd 92 3d 44 90 38 bd
       0.16512589 -0.025752498 0.07165142 -0.045059457

network_body._body_endoder.seq_layers.2.bias f4 [256]
000000 f1 42 39 3b c4 f0 8c 3c 7d 76 61 ba 16 fa 7b 3b
       0.002826866 0.01720465 -0.0008600725 0.0038448623
000010 42 d4 3e 3c 6e e0 ca 3b 58 53 d9 3c 81 7f e7 3b
       0.011647286 0.006191305 0.026529 0.00706476
000020 5f 49 a7 3b 20 64 dd 3c 0f b6 de 3c 0b 05 e9 3b
       0.005105182 0.027025282 0.027186422 0.007111197
000030 0d b9 40 3b 3f 1b cd 3c 85 32 e9 3b 18 7a aa 3c
       0.0029407174 0.025037406 0.007116618 0.020810172
000040 86 49 8d 3b a7 ee 7b 3c d9 9e f2 3c 26 35 86 3c
       0.004311743 0.015376723 0.02961676 0.016382765
000050 9a ee 11 3c f9 ee 97 3c 9d 0f ac 3c f3 53 98 3c
       0.008906985 0.018546568 0.021003539 0.018594718
000060 60 ed b2 3c ba 20 ae 3b d8 08 02 3a 21 cc d8 3c
       0.021841705 0.00531396 0.0004960424 0.026464524
000070 f5 43 0d bc 0b 32 38 3c f3 63 cb 3c 61 07 18 3a
       -0.008622159 0.0112424 0.024827933 0.00057994394
000080 77 a8 22 3c 42 ce bd 3c 2f 6a 97 3c 04 c0 c7 3c
       0.00992786 0.02316964 0.01848325 0.024383552
000090 db 51 31 3c 49 32 10 3c 97 b2 bc 3b 0a 8d bf 3c
       0.0108227385 0.008801051 0.0057585943 0.023382682
0000a0 8d 20 be 3c c1 2f f7 3b 32 15 54 bc 11 45 0d 3c
       0.02320888 0.0075435345 -0.0129445065 0.008622424
0000b0 d6 6f 8a 3c 4b e4 65 3c 48 b2 a5 3c c8 69 63 bb
       0.01689903 0.01403148 0.020226613 -0.0034700502
0000c0 45 6f 06 bc 4c ba f1 3b e0 1f dd 3c 01 1f af 3c
       -0.00820524 0.0073769446 0.026992738 0.021377089
0000d0 b9 4e e7 3c b0 26 61 3b 4a 06 dc 3b 71 ff c9 3b
       0.02823578 0.0034355335 0.006714617 0.006164484
0000e0 d7 dc 86 3c a0 8e 86 3c 31 8c 6e 3c 95 3b a8 3c
       0.016462727 0.01642543 0.014559791 0.020536223
0000f0 67 9b b9 b9 57 ba 5b 3c f6 f8 9f 3c 54 71 d8 3c
       -0.00035401733 0.013411126 0.019527894 0.026421227
000100 7b ee f4 ba 89 4f 97 3c 1a 4f ed bb 66 9b cf 3c
       -0.0018686795 0.018470543 -0.0072420957 0.025342654
000110 3c 8e 18 3c 62 81 e3 3c 6d 07 de 3c a8 16 c2 3c
       0.009311255 0.027771655 0.02710315 0.023692444
000120 61 c3 a4 3c f6 d3 48 bb 25 ba a3 3c 2f 89 94 3c
       0.020112695 -0.0030643917 0.019986222 0.01813182
000130 d0 10 57 bc 0a 20 f6 3c 7c 48 e0 3b 8f 6f 4b 3c
       -0.013126567 0.030044574 0.0068445783 0.012416734
000140 55 f9 12 bc 46 1c 7b 3b 29 d3 5d 3c ef 43 97 bc
       -0.008970578 0.0038316413 0.013539114 -0.01846501
000150 d3 df 86 bb f3 e6 cd 3c 9b 0c c4 3c ed 88 b2 3c
       -0.0041160374 0.02513454 0.023931792 0.021793807
000160 1d 3e 8f 3c f8 75 69 bb 75 f6 b6 3b d7 22 c8 bc
       0.017485673 -0.0035623293 0.005583579 -0.024430675
000170 09 dc e1 bb d8 99 95 3c 8a 29 f4 3b 6c 34 22 3c
       -0.0068926853 0.018261835 0.007451241 0.009900194
000180 10 eb 19 3c b9 c7 d0 3c a1 97 48 3b 42 36 35 3c
       0.009394422 0.02548586 0.0030607956 0.011060299
000190 b7 3d 4c 3c 7f a5 9b 3c 5e b5 6e bc 6b 10 8c 3c
       0.012465886 0.018999813 -0.0145696085 0.017097672
0001a0 e5 3c cd 3c fd 58 a6 3c 8f cc 5f 3b d6 62 5a 3b
       0.02505345 0.020306105 0.0034149026 0.003332307
0001b0 de 1f 9a 3c 5f 02 08 bb d4 9f d3 3c c2 09 93 3c
       0.018814024 -0.0020753366 0.025833048 0.017948989
0001c0 78 cb 41 bc e1 69 83 3c 10 86 ef 3c 4a c5 08 bc
       -0.011828296 0.016041698 0.02923873 -0.008347819
0001d0 c7 01 e9 3c 7e 2b ac 3c 04 f1 58 3c 4e 4d ac 3c
       0.02844323 0.021016832 0.013241056 0.021032955
0001e0 d3 68 0e bb 61 70 a4 3c b5 8d b1 3c 56 88 c9 3c
       -0.002172996 0.020073118 0.021674016 0.024601143
0001f0 40 af a5 3c 1c ea b4 3c da 6b fb ba cc 81 95 bc
       0.020225167 0.022084288 -0.0019181923 -0.018250369
000200 80 f3 d4 3c d1 a4 99 3c b5 f4 c6 3c b4 e9 ca 3b
       0.025995016 0.018755348 0.024286607 0.0061924104
000210 c8 35 89 39 d7 d8 3f 3c 8e e6 d3 3c 07 d2 56 3c
       0.00026170746 0.0117094135 0.025866773 0.013111598
000220 a7 7f b7 3c d8 17 d0 3c 24 bc e8 3c 21 3c 3b 3c
       0.022399737 0.025401995 0.028410025 0.01142791
000230 9d b8 38 3a 6d 6a 95 3c a7 a9 a9 3c a2 f9 14 bb
       0.00070465525 0.018239224 0.02071078 -0.00227318
000240 a8 72 6c 3c 54 95 dc 3c df 3e 90 3c 36 08 9e 3c
       0.014431633 0.026926674 0.017608104 0.019291025
000250 7a 41 d8 3c 20 d3 a0 bb 35 93 ad 3b 81 2a c4 3c
       0.02639841 -0.0049079806 0.0052970895 0.023946049
000260 68 31 e5 3c 1e 9f c9 3c 57 2c e1 3c 70 9c 82 b8
       0.02797766 0.024612006 0.027486963 -6.228022e-05
000270 6e bb eb bb 71 09 73 3c f0 a2 40 bc ef 47 91 3c
       -0.007193974 0.014833794 -0.011757597 0.017734496
000280 13 2d d5 3c e0 81 56 3c 3f 38 09 3c f1 44 ac 3c
       0.02602247 0.013092488 0.0083752265 0.021028968
000290 de bd 36 bc 19 37 f3 3c dc 59 97 3c 8a 5c 24 3c
       -0.011153666 0.029689359 0.018475465 0.010031829
0002a0 f0 f4 77 bc 33 4c 11 3d 0c 34 54 3c 00 f7 99 3b
       -0.015134081 0.03547306 0.012951862 0.004698634
0002b0 ac 71 b3 3c fa f8 b3 3c dc 10 92 3c b1 4b cb 3c
       0.021904789 0.021969307 0.017830305 0.024816366
0002c0 df 56 6c 3c 67 5d a5 3c 90 9b 5a 3c 79 b3 b5 3c
       0.014425009 0.02018614 0.013342753 0.022180306
0002d0 98 0a ee 3b 7d ca c9 3b d2 a8 aa 3c d6 88 b9 3c
       0.0072644465 0.0061581717 0.020832453 0.022648256
0002e0 03 e2 7c 3c 06 df 13 3c f6 b8 03 3c d9 4a 8a 3c
       0.015434745 0.009025341 0.008039704 0.016881393
0002f0 aa 1d da 3c 29 26 dd 3c e0 8e a4 3c 4d 06 38 3c
       0.026625473 0.026995735 0.02008766 0.011231971
000300 43 d3 16 3c bf 8e 59 bc a6 1e 75 3c 9b 02 8e 3c
       0.009205642 -0.013278662 0.01496092 0.017335227
000310 d6 03 d0 3c 45 e0 ca 3c ea d2 81 ba 27 40 d5 bb
       0.025392454 0.024765143 -0.0009904776 -0.0065078917
000320 75 53 55 3c 0d 7f be 3c 9d c1 b6 3c 07 7e 43 3b
       0.013020386 0.023253942 0.022309119 0.0029829757
000330 47 a2 89 3c 22 ab e8 3a 90 7d ee 3c b7 4e 88 3c
       0.016801013 0.0017751197 0.029112607 0.016639097
000340 f4 ae b5 3c 40 57 57 3b 52 1d 1c bb 88 65 d2 3c
       0.02217815 0.0032858402 -0.0023821187 0.02568318
000350 bc 79 85 3c 12 c4 f1 3c 7b 4b d3 3c 66 07 67 3c
       0.016293399 0.029512439 0.025792828 0.014100885
000360 48 52 83 3c 61 95 be 3c 80 33 56 3c 2c 51 bb 3c
       0.016030446 0.023264589 0.013073802 0.022865854
000370 de 4f 55 3a 29 05 f8 3c ed 66 1c 3d fc 49 d1 3c
       0.00081372063 0.030275898 0.038184095 0.025547974
000380 ef 2a 10 bc 06 6a bd 3c f7 a2 a0 3c 76 f0 d7 3c
       -0.008799299 0.023121845 0.019608958 0.026359778
000390 f4 04 ac 3c 1d fc 9e ba 48 81 ab 3c 0a 52 38 3c
       0.020998456 -0.0012129579 0.02093567 0.011250028
0003a0 06 60 03 3d 81 34 60 3b bb 21 d9 3c d7 b0 bc 3c
       0.032073997 0.0034210982 0.026505342 0.023033543
0003b0 8e 58 f2 3c 84 9c 10 3b 42 ad ad 3c f7 43 08 bb
       0.029583242 0.0022065947 0.02120078 -0.0020792463
0003c0 7d 25 99 3c eb 1c 8d ba 80 a3 8b bb 7e dc 82 bc
       0.018694634 -0.0010766065 -0.004261434 -0.01597428
0003d0 ae 15 60 bc 85 1e d8 3c 88 8f e2 bb 84 a9 d2 3c
       -0.013677044 0.02638174 -0.006914083 0.025715597
0003e0 5b 4f a3 3c ac 47 39 bc 23 3f c8 3c 24 25 c8 3c
       0.0199353 -0.011308592 0.024444168 0.024431773
0003f0 1c a5 ab 3c 22 01 91 39 e7 24 e4 3c e5 3a ae 3c
       0.020952754 0.000276574 0.027849628 0.021268317

action_model._discrete_distribution.branches.0.weight f4 [8, 256]
000000 4c d2 ad bc 66 c5 4b bc 1b 3e c9 3c 43 c1 79 bb
       -0.021218441 -0.0124372 0.024565747 -0.0038109578
000010 49 f0 14 3c 5f f5 87 3a 31 1e b0 bc 7e 97 9c bc
       0.009090492 0.0010372809 -0.021498771 -0.019115206
000020 c4 db a9 bc fa cf b4 bc eb 7e f6 bc 4e 93 9e 3c
       -0.020734675 -0.022071827 -0.030089816 0.01935735
000030 0e c4 4e 3c ef ca 2a bc 90 d2 7b bc 04 d3 20 bc
       0.012619985 -0.01042436 -0.015370026 -0.009815935
000040 40 df 1e bb 6d cd cf 3b 2b 6f f8 bc 17 1b 44 bc
       -0.0024241954 0.0063416273 -0.030326447 -0.011969349
000050 56 48 3c bc 5b fa ad bc 7b be bd 3b 1d bd 7f ba
       -0.011491856 -0.021237543 0.0057905293 -0.0009755658
000060 41 2b 90 bc 8a 99 e5 bb 52 fc 86 bb 28 01 e3 bc
       -0.01759875 -0.0070068287 -0.0041194344 -0.027710512
000070 ba 67 0d 3b fd 7a 00 bd b6 91 ff bc d8 40 09 3c
       0.0021576718 -0.03136729 -0.03119741 0.008377276
000080 54 82 d8 3b 14 a8 18 bd 8a b3 0c 3c ad 4e 10 bc
       0.006607333 -0.037269667 0.008587727 -0.00880782
000090 53 af a9 3c e5 93 ac bc f7 18 06 bc 23 10 a3 bc
       0.020713484 -0.021066615 -0.008184663 -0.019905156
0000a0 a7 11 bf bc 0b 72 67 bc 74 00 cd 3c b8 7f 4a bc
       -0.023323847 -0.014126311 0.02502463 -0.012359552
0000b0 35 44 04 3d 9b 80 9b bc 7c 3b 16 bc d7 58 da 3c
       0.03229161 -0.018982222 -0.009169456 0.02665369
0000c0 be e6 91 3c 85 3f 9b 3b 5f ac e2 bc a7 d0 c3 ba
       0.017810222 0.0047377967 -0.027670084 -0.0014939503
0000d0 2e 5f b6 bc 8a 97 f0 3c e6 4c 1f 3c 8c 2d eb 3c
       -0.022262182 0.029369134 0.009722924 0.028708242
0000e0 c7 cd be bb 7e 74 c0 3c 7d 9b 89 bc b2 50 62 bc
       -0.0058228704 0.023493048 -0.016797775 -0.013813185
0000f0 50 f4 43 ba 99 6f 89 bc 51 86 65 bc bb 1c 5f bc
       -0.0007475065 -0.016776847 -0.014009074 -0.01361769
000100 15 a7 04 3d 22 9d 2e 3c da b7 44 3c 71 a4 9c bc
       0.032385904 0.010657581 0.012006724 -0.01912138
000110 ff a9 bb 3a 7e 68 8b bc 85 49 99 3c ba 41 ad 39
       0.001431763 -0.0170176 0.018711815 0.000330461
000120 96 e7 a4 bc 40 0a 91 3c 51 64 fa bc 22 1d de bb
       -0.02012996 0.017705083 -0.030565413 -0.0067783752
000130 e7 31 1c 3c 6e a3 14 bd 65 88 b2 3c b6 4b 89 bc
       0.009533382 -0.03628867 0.021793554 -0.016759735
000140 13 0c aa 3c 38 26 b7 bc e7 63 94 bc c0 d8 14 3d
       0.02075771 -0.022357091 -0.018114043 0.03633952
000150 62 88 93 3c 44 51 b1 bc d7 69 f3 bc 66 bc a1 bc
       0.018009368 -0.021645196 -0.029713554 -0.019743156
000160 53 7b b6 3c 69 89 a7 3c 7b 7b 5d 3c 41 9b a2 3c
       0.022275602 0.020451264 0.01351821 0.019849421
000170 29 38 a1 3c c3 5c 26 3b f4 c6 6a 3c 30 b0 56 3c
       0.0196801 0.002538488 0.014329661 0.01310353
000180 92 98 84 3b e4 4c 54 3c ac d9 d9 3c c7 d0 a5 bc
       0.004046508 0.012957785 0.026593052 -0.020241154
000190 dd 83 12 3d 51 97 9d bc c3 ab 93 3c 6b a0 d0 bc
       0.035770286 -0.019237192 0.018026238 -0.025467118
0001a0 00 08 46 bc dc 5e f5 bb 3d cd 71 3c 87 ba f1 3c
       -0.012086868 -0.0074881148 0.014758405 0.029507888
0001b0 19 2d 3a bc 71 35 c3 3c 53 a7 d2 bc dc 91 eb 3b
       -0.011363291 0.023829194 -0.025714552 0.0071890187
0001c0 9f 41 f9 3c ed c6 54 ba b7 cf 1c bd 8a a4 95 3c
       0.030426798 -0.00081168005 -0.03828403 0.018266935
0001d0 f1 ab cd bc 8f 26 a4 3b f7 87 22 ba 99 31 e8 bc
       -0.025106402 0.0050094794 -0.000620007 -0.028343963
0001e0 2f f2 a5 3c 1b 28 76 bc 87 2e 25 3a 89 c2 82 bc
       0.020257084 -0.01502421 0.00063011836 -0.015961902
0001f0 d2 75 a9 bc 54 f0 bc bc a3 91 cf 3c 2d 35 c0 3c
       -0.020686064 -0.023063816 0.025338 0.023462856
000200 e6 86 cc bc 80 d6 95 bc 92 83 97 bc 42 ef ca bc
       -0.024966668 -0.018290758 -0.018495355 -0.02477229
000210 37 dc 88 bb 9a 25 b3 bb cf 8d 9a bc 8f f7 cb 3c
       -0.0041766423 -0.005467129 -0.018866448 0.024898319
000220 6c e1 9f bc 8c 0a b6 bc 23 a5 d4 bc b4 89 83 bc
       -0.01951667 -0.022221826 -0.02595765 -0.016056873
000230 d9 f9 b1 3b 28 13 31 3c f3 be 04 bd 71 62 d3 3c
       0.0054313955 0.01080779 -0.032408666 0.025803776
000240 ce 2d 27 bc 03 50 08 bd 39 90 80 3c d8 74 d5 3c
       -0.010203792 -0.03327943 0.01569377 0.026056692
000250 4d 6e e9 3a 4d 7b 03 3d d5 4c 94 3b b9 21 d6 bc
       0.0017809361 0.03210001 0.0045257607 -0.026139127
000260 cb 92 bd bc 7f 72 35 bd 0c ab da bc 39 6e 63 bc
       -0.023141285 -0.044298645 -0.02669289 -0.01388126
000270 5b 06 e7 bb e8 e6 a3 bc 81 ce 0f 3d 3a 76 9a bc
       -0.007050318 -0.020007566 0.035109047 -0.018855203
000280 28 aa d3 bb 76 56 29 bc 7f 97 be bc 86 ac 1e 3c
       -0.006459493 -0.010335555 -0.023265598 0.0096846875
000290 0e 98 a7 3c 4b bf b8 bc d6 d1 5a bb 85 c2 e9 3b
       0.020458248 -0.022552153 -0.0033389232 0.0071337842
0002a0 3a 4c 8a 3c 3e f0 48 bd e8 1a c5 bc 52 22 0e 3c
       0.01688205 -0.049057238 -0.024060681 0.008675175
0002b0 53 3f ae bc 5d 72 d1 bc 3c 91 2a 3a e5 4b b7 bc
       -0.02127043 -0.025567228 0.0006506627 -0.022375057
0002c0 a5 14 de bb b9 47 67 bc 7a 90 0b bc 08 a9 f2 bc
       -0.0067773634 -0.014116221 -0.008518333 -0.029621616
0002d0 da a6 cb 3c 9d c7 92 3b c6 0a 4a bc e2 51 0c bd
       0.024859834 0.004479362 -0.01233167 -0.034257777
0002e0 2c d7 8d bc b6 af 9a 3a 72 73 46 3c 64 6e ed 3b
       -0.017314516 0.0011801634 0.012112485 0.0072458256
0002f0 2a 02 bb bc e2 5c 15 bd f1 e3 57 bc f8 54 d5 3c
       -0.02282818 -0.036465533 -0.013176904 0.026041493
000300 b6 9b c1 3b a1 df ca 3c 3b 7a 43 bc ee ec 18 bd
       0.005908455 0.024764838 -0.0119309975 -0.03733533
000310 a5 eb c0 bc f8 21 c0 bc 78 64 27 ba 5b a0 dd 3c
       -0.023549864 -0.023453698 -0.00063855154 0.027054003
000320 aa 36 63 bb b1 01 d8 bc 9c 01 98 bc e1 4c bd bc
       -0.0034670033 -0.026367994 -0.018555455 -0.023107948
000330 9f 29 5d bb 51 93 00 3d c7 a5 cd bc ef e4 a2 bc
       -0.0033746732 0.031390492 -0.025103463 -0.019884555
000340 58 62 56 bc e2 55 87 bc 8f 04 cf 3c 30 91 cb 3c
       -0.01308497 -0.016520444 0.025270728 0.024849504
000350 65 cf f9 3c d5 ad da bc 3e 63 f3 bc b7 01 7f bc
       0.030494401 -0.026694218 -0.029710408 -0.015564374
000360 75 d0 0a bd f8 84 0e bd c2 31 9c bc 44 98 81 bc
       -0.033890206 -0.034794778 -0.019066695 -0.015819676
000370 47 97 3e 3c 59 c4 eb bc 55 34 70 ba 31 dd 8b bc
       0.011632747 -0.02878015 -0.00091630715 -0.017073246
000380 9b 93 ad 3c 8a 27 c5 bc f8 25 6f bc b8 f4 8d bc
       0.021188548 -0.024066705 -0.014596455 -0.017328605
000390 a5 63 8b 3c 1b 54 d8 3c ed 1b 20 bc 83 ef f0 bb
       0.017015288 0.026407292 -0.009772283 -0.007352771
0003a0 e2 70 e1 bc b3 c3 8c 3c 03 7d 06 bd bc 13 0f bd
       -0.027519647 0.01718316 -0.032834064 -0.03493093
0003b0 61 95 28 bc bd a1 89 ba c5 06 8b bc d0 0e 8b 3c
       -0.010289521 -0.0010500472 -0.016971001 0.016974837
0003c0 4f 80 e9 bb 40 5b ab 3c 0f 63 26 3b 06 8a ac 3c
       -0.0071258913 0.020917535 0.0025388633 0.021061908
0003d0 38 ee 07 3d bf 27 24 bd b5 76 81 3c 1d b4 56 bc
       0.033186167 -0.040076967 0.015803674 -0.013104466
0003e0 0d 11 d1 bc b9 49 85 3c 95 91 b6 bc dc 7e c7 bc
       -0.025520826 0.016270505 -0.022286216 -0.024352483
0003f0 31 c2 85 bc c9 d9 19 3c dd 14 16 bd 55 e8 7d bc
       -0.01632795 0.009390303 -0.03664099 -0.015497287

action_model._discrete_distribution.branches.0.bias f4 [8]
000000 c6 63 bd bc d9 1a 22 bc d0 be 84 bb 48 1d 9d 37
       -0.023118865 -0.009894096 -0.004051067 1.8729494e-05
000010 d2 2b 1b 3c 2b da 0b 3c c9 3d 33 3c 88 8a 88 3c
       0.009470897 0.008535902 0.010940024 0.01666762

onnx::Div_52 f4 [192]
000000 59 29 0c 40 6f 40 8b 3f 5d 8d 97 3f aa 8f a6 3c
       2.1900237 1.0879039 1.1840016 0.020332176
000010 35 f3 55 3f bb 5c e2 3e 73 9b 34 40 8f 5c 8c 3f
       0.8357423 0.44211373 2.8219879 1.0965747
000020 d5 77 2d 40 72 85 ac 3d 35 f3 55 3f 70 a5 f7 3e
       2.710439 0.0842389 0.8357423 0.48368406
000030 3d 95 37 40 ed 9f 8c 3f 53 e3 7b 40 01 24 73 3e
       2.8684838 1.0986305 3.9357498 0.23744203
000040 35 f3 55 3f 68 4e fd 3e fd f7 12 40 c9 44 a3 3f
       0.8357423 0.49473882 2.296386 1.2755367
000050 41 22 91 40 e5 14 dd 3e 35 f3 55 3f 5d 41 fd 3e
       4.5354314 0.43180004 0.8357423 0.4946393
000060 f5 aa c7 3f 01 c6 af 3f a1 a8 97 40 06 df fd 3e
       1.5599047 1.3732301 4.7393346 0.49584216
000070 35 f3 55 3f 57 dd ff 3e 64 07 98 3f af a5 83 3f
       0.8357423 0.49973556 1.1877255 1.0284938
000080 19 83 94 40 ec 28 b9 3e 35 f3 55 3f d1 c1 ff 3e
       4.641003 0.36164033 0.8357423 0.49952558
000090 78 71 8a 3f 98 3d 41 3f 11 0f 8c 40 eb de 2b 3e
       1.0815878 0.7548461 4.376839 0.16784255
0000a0 35 f3 55 3f 98 94 ff 3e 16 f0 86 3f a0 3e f7 3e
       0.8357423 0.49918056 1.0542018 0.48289967
0000b0 98 0f 8d 40 e2 ec 37 3d 35 f3 55 3f b0 47 fd 3e
       4.4081535 0.044903643 0.8357423 0.49468756
0000c0 13 eb 6f 40 40 66 93 3f 04 12 82 40 23 d1 f1 3e
       3.7487228 1.1515579 4.064699 0.4722987
0000d0 de c4 52 3f f2 c1 f0 3e e2 da 42 40 bf 2e 6c 3f
       0.82331645 0.4702297 3.0446095 0.9225883
0000e0 45 15 4e 40 85 0f c8 3e bf 89 24 3f c4 ac f1 3e
       3.2200482 0.3907434 0.64272684 0.47202122
0000f0 d2 99 dc 3a d2 99 dc 3a d2 99 dc 3a d2 99 dc 3a
       0.001683051 0.001683051 0.001683051 0.001683051
000100 d2 99 dc 3a d2 99 dc 3a ff a7 40 40 3a 51 93 3f
       0.001683051 0.001683051 3.0102537 1.1509163
000110 80 4f 8b 40 0f e4 f1 3e 5e 99 55 3f eb 54 a9 3e
       4.3534546 0.47244307 0.83437145 0.330726
000120 00 78 4d 40 88 b8 93 3f 4c d9 8a 40 0d fb f9 3e
       3.2104492 1.154069 4.3390255 0.4882435
000130 07 9f 51 3f eb 54 a9 3e b0 41 4c 40 83 04 93 3f
       0.8188328 0.330726 3.1915092 1.1485752
000140 c2 ba 8a 40 38 a8 f9 3e 54 9f 57 3f eb 54 a9 3e
       4.3352976 0.48761153 0.8422749 0.330726
000150 28 f6 40 40 93 42 93 3f 6b fe 88 40 4a e9 e7 3e
       3.0150242 1.1504692 4.281057 0.45295173
000160 31 b6 52 3f 6e b4 dd 3e 04 53 4f 40 18 aa 91 3f
       0.8230925 0.4330172 3.2394419 1.1380033
000170 66 e4 87 40 63 af f3 3e 52 7f 56 3f 6e b4 dd 3e
       4.2466307 0.47594747 0.83788025 0.4330172
000180 f7 99 4b 40 4d 6d 91 3f 4f d2 87 40 7a 70 f2 3e
       3.1812723 1.1361481 4.2444224 0.47351438
000190 a1 74 53 3f 6e b4 dd 3e 33 5f 3e 40 4e 56 90 3f
       0.82599837 0.4330172 2.9745605 1.1276338
0001a0 89 e6 84 40 53 70 df 3e 27 88 4d 3f 66 df f7 3e
       4.1531415 0.43640384 0.80285877 0.48412627
0001b0 ff 16 4d 40 50 20 8d 3f 47 ae 81 40 42 98 ee 3e
       3.2045286 1.1025486 4.052524 0.46600538
0001c0 6e 38 50 3f 66 df f7 3e 1f b0 4c 40 1c ef 8c 3f
       0.81336105 0.48412627 3.1982496 1.101047
0001d0 30 c5 81 40 ea fc ed 3e 7a e0 4d 3f 66 df f7 3e
       4.0553207 0.4648202 0.8042065 0.48412627
0001e0 61 94 3c 40 b3 78 88 3f 65 ca 78 40 71 81 d8 3e
       2.9465563 1.0661834 3.8873532 0.42286256
0001f0 1f 92 42 3f 2f 00 00 3f 4a 02 4f 40 bf e5 82 3f
       0.76004213 0.5000028 3.2345147 1.0226363
000200 b5 19 6d 40 28 da e8 3e 1f c7 44 3f 2f 00 00 3f
       3.704694 0.4547894 0.76866335 0.5000028
000210 ae a5 4c 40 0d 68 82 3f 9e d5 6d 40 6b 89 e8 3e
       3.1976123 1.0188004 3.7161632 0.45417342
000220 b7 32 43 3f 2f 00 00 3f e9 ab 38 40 c5 12 77 3f
       0.7624926 0.5000028 2.8854926 0.96513015
000230 e4 ab 60 40 33 be c8 3e 4d d0 30 3f 4e df f7 3e
       3.5104914 0.3920761 0.6906784 0.48412555
000240 9a 35 4b 40 66 80 6b 3f f1 d0 53 40 d0 aa d9 3e
       3.1751466 0.91992795 3.3096278 0.42513132
000250 8f b2 33 3f 4e df f7 3e ee be 4a 40 3f b1 6a 3f
       0.70194334 0.48412555 3.1679034 0.91676706
000260 4a f2 53 40 a3 bf d9 3e 45 f7 31 3f 4e df f7 3e
       3.3116632 0.4252902 0.6951793 0.48412555
000270 d6 15 30 40 70 a8 55 3f c5 46 3b 40 27 aa b0 3e
       2.7513328 0.8346014 2.9261944 0.34504816
000280 54 5c 17 3f 37 b4 dd 3e 31 5e 3f 40 ea 1e 4d 3f
       0.59125257 0.43301556 2.990124 0.80125296
000290 d0 c3 2f 40 67 86 be 3e 15 62 19 3f 37 b4 dd 3e
       2.7463264 0.37211916 0.59915286 0.43301556
0002a0 c4 8d 3e 40 b5 36 4d 3f 38 35 30 40 1b 0c be 3e
       2.9774027 0.801616 2.7532482 0.3711861
0002b0 c2 4b 18 3f 37 b4 dd 3e 4d f0 0c 40 7a 28 1d 3f
       0.594906 0.43301556 2.2021668 0.6138989
0002c0 81 0a 07 40 e2 fc 86 3e cc 98 e1 3e 80 54 a9 3e
       2.110016 0.2636481 0.44061887 0.3307228
0002d0 2a 7f 12 40 5b 2b 1d 3f f0 a4 02 40 98 46 8a 3e
       2.2890115 0.6139428 2.041317 0.27006984
0002e0 25 e7 df 3e 80 54 a9 3e 4e 66 13 40 c6 b7 1d 3f
       0.43731037 0.3307228 2.3031192 0.6160854
0002f0 db 2c 01 40 bd 79 8a 3e 79 c8 e0 3e 80 54 a9 3e
       2.0183628 0.27046004 0.43902948 0.3307228
